…
2021-12-03 15:54:21 INFO     	head_tail_shared = 1
2021-12-03 15:54:21 INFO     	seed = 2020
2021-12-03 15:54:21 INFO     Model saving path: ../models/coralr_0.0002lyer_2hs_8ho_1hi_512tk_5pd_-1ind_0.25att_0.5ed_0.1alpha_0.15decay_1e-05
2021-12-03 15:54:26 INFO     ----Data statistics------'
      #Edges 10556
      #Classes 7 
      #Train samples 140
      #Val samples 300
      #Test samples 1000
2021-12-03 15:54:29 INFO     MAGNA(
  (gdt_layers): ModuleList(
    (0): MAGNALayer(
      (feat_drop): Dropout(p=0.25, inplace=False)
      (attn_drop): Dropout(p=0.5, inplace=False)
      (leaky_relu): LeakyReLU(negative_slope=0.2)
      (fc): Linear(in_features=1433, out_features=512, bias=False)
      (fc_out): Linear(in_features=512, out_features=512, bias=False)
      (res_fc): Linear(in_features=1433, out_features=512, bias=False)
      (graph_norm): STDLayerNorm()
      (feed_forward): PositionwiseFeedForward(
        (w_1): Linear(in_features=512, out_features=2048, bias=True)
        (w_2): Linear(in_features=2048, out_features=512, bias=True)
        (dropout): Dropout(p=0.1, inplace=False)
      )
      (ff_norm): STDLayerNorm()
    )
    (1): MAGNALayer(
      (feat_drop): Dropout(p=0.25, inplace=False)
      (attn_drop): Dropout(p=0.5, inplace=False)
      (leaky_relu): LeakyReLU(negative_slope=0.2)
      (fc): Linear(in_features=512, out_features=512, bias=False)
      (fc_out): Linear(in_features=512, out_features=512, bias=False)
      (res_fc): Identity()
      (graph_norm): STDLayerNorm()
      (feed_forward): PositionwiseFeedForward(
        (w_1): Linear(in_features=512, out_features=2048, bias=True)
        (w_2): Linear(in_features=2048, out_features=512, bias=True)
        (dropout): Dropout(p=0.1, inplace=False)
      )
      (ff_norm): STDLayerNorm()
    )
  )
  (classifier): Linear(in_features=512, out_features=7, bias=True)
  (feat_drop_out): Dropout(p=0.25, inplace=False)
)
2021-12-03 15:54:29 INFO     Epoch 00000 | Time(s) nan | Loss 5.0764 | TrainAcc 0.1143 | ValAcc 0.3800 | ETputs(KTEPS) nan
2021-12-03 15:54:29 INFO     Epoch 00001 | Time(s) nan | Loss 5.5250 | TrainAcc 0.3000 | ValAcc 0.3533 | ETputs(KTEPS) nan
2021-12-03 15:54:29 INFO     Epoch 00002 | Time(s) nan | Loss 3.9799 | TrainAcc 0.3429 | ValAcc 0.4067 | ETputs(KTEPS) nan
…
